…
l=True, hfSize=512, image_embedding='res101', lambda1=10.0, lr=0.0001, manualSeed=None, matdataset=True, nclass_all=200, dis_hu=4096, nepoch=100, netD='', netD_name='MLP_CRITIC', netG='', netG_name='MLP_G', gen_hu=4096, ngpu=1, nrh1=1024, nrh2=512, nrh3=256, nrh4=128, nz=312, outf='./checkpoint/', outname='cub', preprocessing=True, pretrain_classifier='', print_every=1, r_hl=3, r_weight=1, res_size=2048, save_every=100, standardization=False, start_epoch=0, syn_num=800, triple_batch_size=128, val_every=1, validation=False, workers=2)
Random Seed:  628
# of training samples:  7057
MLP_G(
  (fc1): Linear(in_features=624, out_features=4096)
  (fc2): Linear(in_features=4096, out_features=2048)
  (lrelu): LeakyReLU(0.2, inplace)
  (relu): ReLU(inplace)
)
MLP_CRITIC(
  (fc1): Linear(in_features=2360, out_features=4096)
  (fc2): Linear(in_features=4096, out_features=1)
  (lrelu): LeakyReLU(0.2, inplace)
)
MLP_3HL_Dropout_FR(
  (fc1): Linear(in_features=512, out_features=1024)
  (fc2): Linear(in_features=1024, out_features=512)
  (fc3): Linear(in_features=512, out_features=256)
  (fc4): Linear(in_features=256, out_features=312)
  (relu): ReLU(inplace)
  (lrelu): LeakyReLU(0.2, inplace)
  (dropout): Dropout(p=0.2)
)
MLP_Dropout_Fusion(
  (fc1): Linear(in_features=2048, out_features=1024)
  (fc2): Linear(in_features=1024, out_features=512)
  (relu): ReLU(inplace)
  (lrelu): LeakyReLU(0.2, inplace)
  (drop): Dropout(p=0.2)
)
EPOCH          |  D_cost  |  G_cost  |  F_cost  |  R_cost  |  Wasserstein_D  |  ACC_unseen  |  ACC_seen  |    H    |
[ 1  /100 ]    | -2.1647  | -0.3059  |  0.3708  |  0.7604  |     2.3147      |    0.0392    |   0.3232   | 0.0700  |
[ 2  /100 ]    | -2.1882  | -0.2662  |  0.1645  |  0.7907  |     2.2898      |    0.1081    |   0.2316   | 0.1474  |
…
