…
l=True, hfSize=512, image_embedding='res101', lambda1=10.0, lr=1e-05, manualSeed=None, matdataset=True, nclass_all=50, dis_hu=4096, nepoch=200, netD='', netD_name='MLP_CRITIC', netG='', netG_name='MLP_G', gen_hu=4096, ngpu=1, nrh1=1024, nrh2=512, nrh3=256, nrh4=128, nz=85, outf='./checkpoint/', outname='awa', preprocessing=True, pretrain_classifier='', print_every=1, r_hl=4, r_weight=1, res_size=2048, save_every=100, standardization=False, start_epoch=0, syn_num=3200, triple_batch_size=128, val_every=1, validation=False, workers=2)
Random Seed:  8932
# of training samples:  19832
MLP_G(
  (fc1): Linear(in_features=170, out_features=4096)
  (fc2): Linear(in_features=4096, out_features=2048)
  (lrelu): LeakyReLU(0.2, inplace)
  (relu): ReLU(inplace)
)
MLP_CRITIC(
  (fc1): Linear(in_features=2133, out_features=4096)
  (fc2): Linear(in_features=4096, out_features=1)
  (lrelu): LeakyReLU(0.2, inplace)
)
MLP_4HL_Dropout_FR(
  (fc1): Linear(in_features=512, out_features=1024)
  (fc2): Linear(in_features=1024, out_features=512)
  (fc3): Linear(in_features=512, out_features=256)
  (fc4): Linear(in_features=256, out_features=128)
  (fc5): Linear(in_features=128, out_features=85)
  (relu): ReLU(inplace)
  (lrelu): LeakyReLU(0.2, inplace)
  (dropout): Dropout(p=0.2)
)
MLP_Dropout_Fusion(
  (fc1): Linear(in_features=2048, out_features=1024)
  (fc2): Linear(in_features=1024, out_features=512)
  (relu): ReLU(inplace)
  (lrelu): LeakyReLU(0.2, inplace)
  (drop): Dropout(p=0.2)
)
EPOCH          |  D_cost  |  G_cost  |  F_cost  |  R_cost  |  Wasserstein_D  |  ACC_unseen  |  ACC_seen  |    H    |
[ 1  /200 ]    | -0.6526  |  0.9026  |  0.7623  |  0.7536  |     0.6649      |    0.0948    |   0.1758   | 0.1232  |
[ 2  /200 ]    | -0.1449  |  0.3204  |  0.5098  |  0.7730  |     0.1474      |    0.0890    |   0.4237   | 0.1471  |
…
