…
e=512, image_embedding='res101', lambda1=10.0, lr=0.0002, manualSeed=None, matdataset=True, nclass_all=717, ndh=4096, nepoch=300, netD='', netD_name='MLP_CRITIC', netG='', netG_name='MLP_G', ngh=4096, ngpu=1, nrh1=1024, nrh2=512, nrh3=256, nrh4=128, ntrain_class=645, nz=102, outf='./checkpoint/', outname='sun', preprocessing=True, pretrain_classifier='', print_every=1, r_hl=4, r_weight=1, resSize=2048, save_every=100, standardization=False, start_epoch=0, syn_num=600, triple_batch_size=128, val_every=1, validation=False, workers=2)
Random Seed:  2954
# of training samples:  10320
MLP_G(
  (fc1): Linear(in_features=204, out_features=4096)
  (fc2): Linear(in_features=4096, out_features=2048)
  (lrelu): LeakyReLU(0.2, inplace)
  (relu): ReLU(inplace)
)
robDis(
  (fc1): Linear(in_features=2150, out_features=4096)
  (bin): Linear(in_features=4096, out_features=1)
  (multi): Linear(in_features=4096, out_features=645)
  (relu): ReLU(inplace)
)
MLP_4HL_Dropout_R(
  (fc1): Linear(in_features=2048, out_features=1024)
  (fc2): Linear(in_features=1024, out_features=512)
  (fc3): Linear(in_features=512, out_features=256)
  (fc4): Linear(in_features=256, out_features=128)
  (fc5): Linear(in_features=128, out_features=102)
  (relu): ReLU(inplace)
  (lrelu): LeakyReLU(0.2, inplace)
  (dropout): Dropout(p=0.2)
)
EPOCH          |  D_cost  |  G_cost  |  R_cost  |  ACC_unseen  |  ACC_seen  |    H    |
[ 1  /300 ]    |  4.2991  |  3.7445  |  0.6401  |    0.0215    |   0.0415   | 0.0283  |
[ 2  /300 ]    |  3.9570  |  3.7489  |  0.6687  |    0.0278    |   0.1853   | 0.0483  |
[ 3  /300 ]    |  3.4930  |  3.5609  |  0.6830  |    0.0562    |   0.2422   | 0.0913  |
…
