…
image_embedding='res101', lambda1=10.0, lr=0.0002, manualSeed=4115, matdataset=True, nclass_all=717, dis_hu=4096, nepoch=300, netD='', netD_name='MLP_CRITIC', netG='', netG_name='MLP_G', gen_hu=4096, ngpu=1, nrh1=1024, nrh2=512, nrh3=256, nrh4=128, ntrain_class=645, nz=102, outf='./checkpoint/', outname='sun', preprocessing=True, pretrain_classifier='', print_every=1, r_hl=4, r_weight=1, res_size=2048, save_every=100, standardization=False, start_epoch=0, syn_num=600, triple_batch_size=128, val_every=1, validation=False, workers=2)
Random Seed:  4115
# of training samples:  10320
MLP_G(
  (fc1): Linear(in_features=204, out_features=4096)
  (fc2): Linear(in_features=4096, out_features=2048)
  (lrelu): LeakyReLU(0.2, inplace)
  (relu): ReLU(inplace)
)
robDis(
  (fc1): Linear(in_features=2150, out_features=4096)
  (bin): Linear(in_features=4096, out_features=1)
  (multi): Linear(in_features=4096, out_features=645)
  (relu): ReLU(inplace)
)
MLP_4HL_Dropout_R(
  (fc1): Linear(in_features=2048, out_features=1024)
  (fc2): Linear(in_features=1024, out_features=512)
  (fc3): Linear(in_features=512, out_features=256)
  (fc4): Linear(in_features=256, out_features=128)
  (fc5): Linear(in_features=128, out_features=102)
  (relu): ReLU(inplace)
  (lrelu): LeakyReLU(0.2, inplace)
  (dropout): Dropout(p=0.2)
)
EPOCH          |  D_cost  |  G_cost  |  R_cost  |  ACC_unseen  |  ACC_seen  |    H    |
[ 1  /300 ]    |  4.2767  |  3.7740  |  0.6313  |    0.0201    |   0.0570   | 0.0298  |
[ 2  /300 ]    |  3.9600  |  3.7475  |  0.6767  |    0.0222    |   0.1709   | 0.0393  |
[ 3  /300 ]    |  3.5273  |  3.9840  |  0.7246  |    0.0576    |   0.1857   | 0.0880  |
…
