…
ge_embedding='res101', lambda1=10.0, lr=0.0001, manualSeed=None, matdataset=True, nclass_all=102, dis_hu=4096, nepoch=300, netD='', netD_name='MLP_CRITIC', netG='', netG_name='MLP_G', gen_hu=4096, ngpu=1, nrh1=1024, nrh2=512, nrh3=256, nrh4=128, ntrain_class=82, nz=1024, outf='./checkpoint/', outname='flowers', preprocessing=True, pretrain_classifier='', print_every=1, r_hl=4, r_weight=1, res_size=2048, save_every=100, standardization=False, start_epoch=0, syn_num=800, triple_batch_size=128, val_every=1, validation=False, workers=2)
Random Seed:  3753
# of training samples:  5631
MLP_G(
  (fc1): Linear(in_features=2048, out_features=4096)
  (fc2): Linear(in_features=4096, out_features=2048)
  (lrelu): LeakyReLU(0.2, inplace)
  (relu): ReLU(inplace)
)
robDis(
  (fc1): Linear(in_features=3072, out_features=4096)
  (bin): Linear(in_features=4096, out_features=1)
  (multi): Linear(in_features=4096, out_features=82)
  (relu): ReLU(inplace)
)
MLP_4HL_Dropout_R(
  (fc1): Linear(in_features=2048, out_features=1024)
  (fc2): Linear(in_features=1024, out_features=512)
  (fc3): Linear(in_features=512, out_features=256)
  (fc4): Linear(in_features=256, out_features=128)
  (fc5): Linear(in_features=128, out_features=1024)
  (relu): ReLU(inplace)
  (lrelu): LeakyReLU(0.2, inplace)
  (dropout): Dropout(p=0.2)
)
EPOCH          |  D_cost  |  G_cost  |  R_cost  |  ACC_unseen  |  ACC_seen  |    H    |
[ 1  /300 ]    |  2.4658  |  2.8409  |  0.5711  |    0.0498    |   0.1477   | 0.0745  |
[ 2  /300 ]    |  2.2847  |  2.3059  |  0.7007  |    0.0286    |   0.1275   | 0.0467  |
[ 3  /300 ]    |  1.8081  |  2.1936  |  0.7114  |    0.0538    |   0.2974   | 0.0912  |
…
