…
ize=512, image_embedding='res101', lambda1=10.0, lr=1e-05, manualSeed=None, matdataset=True, nclass_all=50, ndh=4096, nepoch=200, netD='', netD_name='MLP_CRITIC', netG='', netG_name='MLP_G', ngh=4096, ngpu=1, nrh1=1024, nrh2=512, nrh3=256, nrh4=128, ntrain_class=40, nz=85, outf='./checkpoint/', outname='awa2', preprocessing=True, pretrain_classifier='', print_every=1, r_hl=4, r_weight=1, resSize=2048, save_every=100, standardization=False, start_epoch=0, syn_num=2000, triple_batch_size=128, val_every=1, validation=False, workers=2)
Random Seed:  7128
# of training samples:  23527
MLP_G(
  (fc1): Linear(in_features=170, out_features=4096)
  (fc2): Linear(in_features=4096, out_features=2048)
  (lrelu): LeakyReLU(0.2, inplace)
  (relu): ReLU(inplace)
)
robDis(
  (fc1): Linear(in_features=2133, out_features=4096)
  (bin): Linear(in_features=4096, out_features=1)
  (multi): Linear(in_features=4096, out_features=40)
  (relu): ReLU(inplace)
)
MLP_4HL_Dropout_R(
  (fc1): Linear(in_features=2048, out_features=1024)
  (fc2): Linear(in_features=1024, out_features=512)
  (fc3): Linear(in_features=512, out_features=256)
  (fc4): Linear(in_features=256, out_features=128)
  (fc5): Linear(in_features=128, out_features=85)
  (relu): ReLU(inplace)
  (lrelu): LeakyReLU(0.2, inplace)
  (dropout): Dropout(p=0.2)
)
EPOCH          |  D_cost  |  G_cost  |  R_cost  |  ACC_unseen  |  ACC_seen  |    H    |
[ 1  /200 ]    |  2.7963  |  2.4333  |  0.5843  |    0.0537    |   0.3076   | 0.0914  |
[ 2  /200 ]    |  2.7236  |  2.2908  |  0.6735  |    0.1261    |   0.1937   | 0.1528  |
[ 3  /200 ]    |  2.5623  |  2.2323  |  0.7171  |    0.0817    |   0.1869   | 0.1137  |
…
